{
  "nodes": [
    {
      "op": "null", 
      "name": "data", 
      "inputs": []
    }, 
    {
      "op": "null", 
      "name": "convconvPRE_weight", 
      "attrs": {
        "kernel": "(3, 3)", 
        "num_filter": "128", 
        "pad": "(1, 1)", 
        "stride": "(1, 1)"
      }, 
      "inputs": []
    }, 
    {
      "op": "null", 
      "name": "convconvPRE_bias", 
      "attrs": {
        "kernel": "(3, 3)", 
        "num_filter": "128", 
        "pad": "(1, 1)", 
        "stride": "(1, 1)"
      }, 
      "inputs": []
    }, 
    {
      "op": "Convolution", 
      "name": "convconvPRE", 
      "attrs": {
        "kernel": "(3, 3)", 
        "num_filter": "128", 
        "pad": "(1, 1)", 
        "stride": "(1, 1)"
      }, 
      "inputs": [[0, 0, 0], [1, 0, 0], [2, 0, 0]]
    }, 
    {
      "op": "null", 
      "name": "bnconvPRE_gamma", 
      "attrs": {"fix_gamma": "False"}, 
      "inputs": []
    }, 
    {
      "op": "null", 
      "name": "bnconvPRE_beta", 
      "attrs": {"fix_gamma": "False"}, 
      "inputs": []
    }, 
    {
      "op": "null", 
      "name": "bnconvPRE_moving_mean", 
      "attrs": {
        "__init__": "[\"zero\", {}]", 
        "fix_gamma": "False"
      }, 
      "inputs": []
    }, 
    {
      "op": "null", 
      "name": "bnconvPRE_moving_var", 
      "attrs": {
        "__init__": "[\"one\", {}]", 
        "fix_gamma": "False"
      }, 
      "inputs": []
    }, 
    {
      "op": "BatchNorm", 
      "name": "bnconvPRE", 
      "attrs": {"fix_gamma": "False"}, 
      "inputs": [[3, 0, 0], [4, 0, 0], [5, 0, 0], [6, 0, 1], [7, 0, 1]]
    }, 
    {
      "op": "Activation", 
      "name": "actconvPRE", 
      "attrs": {"act_type": "relu"}, 
      "inputs": [[8, 0, 0]]
    }, 
    {
      "op": "null", 
      "name": "bn1_a0_gamma", 
      "attrs": {"fix_gamma": "False"}, 
      "inputs": []
    }, 
    {
      "op": "null", 
      "name": "bn1_a0_beta", 
      "attrs": {"fix_gamma": "False"}, 
      "inputs": []
    }, 
    {
      "op": "null", 
      "name": "bn1_a0_moving_mean", 
      "attrs": {
        "__init__": "[\"zero\", {}]", 
        "fix_gamma": "False"
      }, 
      "inputs": []
    }, 
    {
      "op": "null", 
      "name": "bn1_a0_moving_var", 
      "attrs": {
        "__init__": "[\"one\", {}]", 
        "fix_gamma": "False"
      }, 
      "inputs": []
    }, 
    {
      "op": "BatchNorm", 
      "name": "bn1_a0", 
      "attrs": {"fix_gamma": "False"}, 
      "inputs": [[9, 0, 0], [10, 0, 0], [11, 0, 0], [12, 0, 1], [13, 0, 1]]
    }, 
    {
      "op": "Activation", 
      "name": "act1_a0", 
      "attrs": {"act_type": "relu"}, 
      "inputs": [[14, 0, 0]]
    }, 
    {
      "op": "null", 
      "name": "conv1_a0_weight", 
      "attrs": {
        "kernel": "(3, 3)", 
        "num_filter": "64", 
        "pad": "(1, 1)", 
        "stride": "(1, 1)"
      }, 
      "inputs": []
    }, 
    {
      "op": "null", 
      "name": "conv1_a0_bias", 
      "attrs": {
        "kernel": "(3, 3)", 
        "num_filter": "64", 
        "pad": "(1, 1)", 
        "stride": "(1, 1)"
      }, 
      "inputs": []
    }, 
    {
      "op": "Convolution", 
      "name": "conv1_a0", 
      "attrs": {
        "kernel": "(3, 3)", 
        "num_filter": "64", 
        "pad": "(1, 1)", 
        "stride": "(1, 1)"
      }, 
      "inputs": [[15, 0, 0], [16, 0, 0], [17, 0, 0]]
    }, 
    {
      "op": "null", 
      "name": "bn1_b0_gamma", 
      "attrs": {"fix_gamma": "False"}, 
      "inputs": []
    }, 
    {
      "op": "null", 
      "name": "bn1_b0_beta", 
      "attrs": {"fix_gamma": "False"}, 
      "inputs": []
    }, 
    {
      "op": "null", 
      "name": "bn1_b0_moving_mean", 
      "attrs": {
        "__init__": "[\"zero\", {}]", 
        "fix_gamma": "False"
      }, 
      "inputs": []
    }, 
    {
      "op": "null", 
      "name": "bn1_b0_moving_var", 
      "attrs": {
        "__init__": "[\"one\", {}]", 
        "fix_gamma": "False"
      }, 
      "inputs": []
    }, 
    {
      "op": "BatchNorm", 
      "name": "bn1_b0", 
      "attrs": {"fix_gamma": "False"}, 
      "inputs": [[18, 0, 0], [19, 0, 0], [20, 0, 0], [21, 0, 1], [22, 0, 1]]
    }, 
    {
      "op": "Activation", 
      "name": "act1_b0", 
      "attrs": {"act_type": "relu"}, 
      "inputs": [[23, 0, 0]]
    }, 
    {
      "op": "null", 
      "name": "conv1_b0_weight", 
      "attrs": {
        "kernel": "(3, 3)", 
        "num_filter": "64", 
        "pad": "(1, 1)"
      }, 
      "inputs": []
    }, 
    {
      "op": "null", 
      "name": "conv1_b0_bias", 
      "attrs": {
        "kernel": "(3, 3)", 
        "num_filter": "64", 
        "pad": "(1, 1)"
      }, 
      "inputs": []
    }, 
    {
      "op": "Convolution", 
      "name": "conv1_b0", 
      "attrs": {
        "kernel": "(3, 3)", 
        "num_filter": "64", 
        "pad": "(1, 1)"
      }, 
      "inputs": [[24, 0, 0], [25, 0, 0], [26, 0, 0]]
    }, 
    {
      "op": "null", 
      "name": "adj1_weight", 
      "attrs": {
        "kernel": "(1, 1)", 
        "num_filter": "64", 
        "stride": "(1, 1)"
      }, 
      "inputs": []
    }, 
    {
      "op": "null", 
      "name": "adj1_bias", 
      "attrs": {
        "kernel": "(1, 1)", 
        "num_filter": "64", 
        "stride": "(1, 1)"
      }, 
      "inputs": []
    }, 
    {
      "op": "Convolution", 
      "name": "adj1", 
      "attrs": {
        "kernel": "(1, 1)", 
        "num_filter": "64", 
        "stride": "(1, 1)"
      }, 
      "inputs": [[15, 0, 0], [28, 0, 0], [29, 0, 0]]
    }, 
    {
      "op": "elemwise_add", 
      "name": "_plus0", 
      "inputs": [[27, 0, 0], [30, 0, 0]]
    }, 
    {
      "op": "null", 
      "name": "bn1_a1_gamma", 
      "attrs": {"fix_gamma": "False"}, 
      "inputs": []
    }, 
    {
      "op": "null", 
      "name": "bn1_a1_beta", 
      "attrs": {"fix_gamma": "False"}, 
      "inputs": []
    }, 
    {
      "op": "null", 
      "name": "bn1_a1_moving_mean", 
      "attrs": {
        "__init__": "[\"zero\", {}]", 
        "fix_gamma": "False"
      }, 
      "inputs": []
    }, 
    {
      "op": "null", 
      "name": "bn1_a1_moving_var", 
      "attrs": {
        "__init__": "[\"one\", {}]", 
        "fix_gamma": "False"
      }, 
      "inputs": []
    }, 
    {
      "op": "BatchNorm", 
      "name": "bn1_a1", 
      "attrs": {"fix_gamma": "False"}, 
      "inputs": [[31, 0, 0], [32, 0, 0], [33, 0, 0], [34, 0, 1], [35, 0, 1]]
    }, 
    {
      "op": "Activation", 
      "name": "act1_a1", 
      "attrs": {"act_type": "relu"}, 
      "inputs": [[36, 0, 0]]
    }, 
    {
      "op": "null", 
      "name": "conv1_a1_weight", 
      "attrs": {
        "kernel": "(3, 3)", 
        "num_filter": "64", 
        "pad": "(1, 1)"
      }, 
      "inputs": []
    }, 
    {
      "op": "null", 
      "name": "conv1_a1_bias", 
      "attrs": {
        "kernel": "(3, 3)", 
        "num_filter": "64", 
        "pad": "(1, 1)"
      }, 
      "inputs": []
    }, 
    {
      "op": "Convolution", 
      "name": "conv1_a1", 
      "attrs": {
        "kernel": "(3, 3)", 
        "num_filter": "64", 
        "pad": "(1, 1)"
      }, 
      "inputs": [[37, 0, 0], [38, 0, 0], [39, 0, 0]]
    }, 
    {
      "op": "null", 
      "name": "bn1_b1_gamma", 
      "attrs": {"fix_gamma": "False"}, 
      "inputs": []
    }, 
    {
      "op": "null", 
      "name": "bn1_b1_beta", 
      "attrs": {"fix_gamma": "False"}, 
      "inputs": []
    }, 
    {
      "op": "null", 
      "name": "bn1_b1_moving_mean", 
      "attrs": {
        "__init__": "[\"zero\", {}]", 
        "fix_gamma": "False"
      }, 
      "inputs": []
    }, 
    {
      "op": "null", 
      "name": "bn1_b1_moving_var", 
      "attrs": {
        "__init__": "[\"one\", {}]", 
        "fix_gamma": "False"
      }, 
      "inputs": []
    }, 
    {
      "op": "BatchNorm", 
      "name": "bn1_b1", 
      "attrs": {"fix_gamma": "False"}, 
      "inputs": [[40, 0, 0], [41, 0, 0], [42, 0, 0], [43, 0, 1], [44, 0, 1]]
    }, 
    {
      "op": "Activation", 
      "name": "act1_b1", 
      "attrs": {"act_type": "relu"}, 
      "inputs": [[45, 0, 0]]
    }, 
    {
      "op": "null", 
      "name": "conv1_b1_weight", 
      "attrs": {
        "kernel": "(3, 3)", 
        "num_filter": "64", 
        "pad": "(1, 1)"
      }, 
      "inputs": []
    }, 
    {
      "op": "null", 
      "name": "conv1_b1_bias", 
      "attrs": {
        "kernel": "(3, 3)", 
        "num_filter": "64", 
        "pad": "(1, 1)"
      }, 
      "inputs": []
    }, 
    {
      "op": "Convolution", 
      "name": "conv1_b1", 
      "attrs": {
        "kernel": "(3, 3)", 
        "num_filter": "64", 
        "pad": "(1, 1)"
      }, 
      "inputs": [[46, 0, 0], [47, 0, 0], [48, 0, 0]]
    }, 
    {
      "op": "elemwise_add", 
      "name": "_plus1", 
      "inputs": [[49, 0, 0], [31, 0, 0]]
    }, 
    {
      "op": "null", 
      "name": "conv1214_weight", 
      "attrs": {
        "kernel": "(3, 3)", 
        "num_filter": "64", 
        "pad": "(1, 1)", 
        "stride": "(1, 1)"
      }, 
      "inputs": []
    }, 
    {
      "op": "null", 
      "name": "conv1214_bias", 
      "attrs": {
        "kernel": "(3, 3)", 
        "num_filter": "64", 
        "pad": "(1, 1)", 
        "stride": "(1, 1)"
      }, 
      "inputs": []
    }, 
    {
      "op": "Convolution", 
      "name": "conv1214", 
      "attrs": {
        "kernel": "(3, 3)", 
        "num_filter": "64", 
        "pad": "(1, 1)", 
        "stride": "(1, 1)"
      }, 
      "inputs": [[50, 0, 0], [51, 0, 0], [52, 0, 0]]
    }, 
    {
      "op": "null", 
      "name": "bn1214_gamma", 
      "attrs": {"fix_gamma": "False"}, 
      "inputs": []
    }, 
    {
      "op": "null", 
      "name": "bn1214_beta", 
      "attrs": {"fix_gamma": "False"}, 
      "inputs": []
    }, 
    {
      "op": "null", 
      "name": "bn1214_moving_mean", 
      "attrs": {
        "__init__": "[\"zero\", {}]", 
        "fix_gamma": "False"
      }, 
      "inputs": []
    }, 
    {
      "op": "null", 
      "name": "bn1214_moving_var", 
      "attrs": {
        "__init__": "[\"one\", {}]", 
        "fix_gamma": "False"
      }, 
      "inputs": []
    }, 
    {
      "op": "BatchNorm", 
      "name": "bn1214", 
      "attrs": {"fix_gamma": "False"}, 
      "inputs": [[53, 0, 0], [54, 0, 0], [55, 0, 0], [56, 0, 1], [57, 0, 1]]
    }, 
    {
      "op": "Activation", 
      "name": "act1214", 
      "attrs": {"act_type": "relu"}, 
      "inputs": [[58, 0, 0]]
    }, 
    {
      "op": "null", 
      "name": "bn2_a0_gamma", 
      "attrs": {"fix_gamma": "False"}, 
      "inputs": []
    }, 
    {
      "op": "null", 
      "name": "bn2_a0_beta", 
      "attrs": {"fix_gamma": "False"}, 
      "inputs": []
    }, 
    {
      "op": "null", 
      "name": "bn2_a0_moving_mean", 
      "attrs": {
        "__init__": "[\"zero\", {}]", 
        "fix_gamma": "False"
      }, 
      "inputs": []
    }, 
    {
      "op": "null", 
      "name": "bn2_a0_moving_var", 
      "attrs": {
        "__init__": "[\"one\", {}]", 
        "fix_gamma": "False"
      }, 
      "inputs": []
    }, 
    {
      "op": "BatchNorm", 
      "name": "bn2_a0", 
      "attrs": {"fix_gamma": "False"}, 
      "inputs": [[59, 0, 0], [60, 0, 0], [61, 0, 0], [62, 0, 1], [63, 0, 1]]
    }, 
    {
      "op": "Activation", 
      "name": "act2_a0", 
      "attrs": {"act_type": "relu"}, 
      "inputs": [[64, 0, 0]]
    }, 
    {
      "op": "null", 
      "name": "conv2_a0_weight", 
      "attrs": {
        "kernel": "(3, 3)", 
        "num_filter": "32", 
        "pad": "(1, 1)", 
        "stride": "(2, 2)"
      }, 
      "inputs": []
    }, 
    {
      "op": "null", 
      "name": "conv2_a0_bias", 
      "attrs": {
        "kernel": "(3, 3)", 
        "num_filter": "32", 
        "pad": "(1, 1)", 
        "stride": "(2, 2)"
      }, 
      "inputs": []
    }, 
    {
      "op": "Convolution", 
      "name": "conv2_a0", 
      "attrs": {
        "kernel": "(3, 3)", 
        "num_filter": "32", 
        "pad": "(1, 1)", 
        "stride": "(2, 2)"
      }, 
      "inputs": [[65, 0, 0], [66, 0, 0], [67, 0, 0]]
    }, 
    {
      "op": "null", 
      "name": "bn2_b0_gamma", 
      "attrs": {"fix_gamma": "False"}, 
      "inputs": []
    }, 
    {
      "op": "null", 
      "name": "bn2_b0_beta", 
      "attrs": {"fix_gamma": "False"}, 
      "inputs": []
    }, 
    {
      "op": "null", 
      "name": "bn2_b0_moving_mean", 
      "attrs": {
        "__init__": "[\"zero\", {}]", 
        "fix_gamma": "False"
      }, 
      "inputs": []
    }, 
    {
      "op": "null", 
      "name": "bn2_b0_moving_var", 
      "attrs": {
        "__init__": "[\"one\", {}]", 
        "fix_gamma": "False"
      }, 
      "inputs": []
    }, 
    {
      "op": "BatchNorm", 
      "name": "bn2_b0", 
      "attrs": {"fix_gamma": "False"}, 
      "inputs": [[68, 0, 0], [69, 0, 0], [70, 0, 0], [71, 0, 1], [72, 0, 1]]
    }, 
    {
      "op": "Activation", 
      "name": "act2_b0", 
      "attrs": {"act_type": "relu"}, 
      "inputs": [[73, 0, 0]]
    }, 
    {
      "op": "null", 
      "name": "conv2_b0_weight", 
      "attrs": {
        "kernel": "(3, 3)", 
        "num_filter": "32", 
        "pad": "(1, 1)"
      }, 
      "inputs": []
    }, 
    {
      "op": "null", 
      "name": "conv2_b0_bias", 
      "attrs": {
        "kernel": "(3, 3)", 
        "num_filter": "32", 
        "pad": "(1, 1)"
      }, 
      "inputs": []
    }, 
    {
      "op": "Convolution", 
      "name": "conv2_b0", 
      "attrs": {
        "kernel": "(3, 3)", 
        "num_filter": "32", 
        "pad": "(1, 1)"
      }, 
      "inputs": [[74, 0, 0], [75, 0, 0], [76, 0, 0]]
    }, 
    {
      "op": "null", 
      "name": "adj2_weight", 
      "attrs": {
        "kernel": "(1, 1)", 
        "num_filter": "32", 
        "stride": "(2, 2)"
      }, 
      "inputs": []
    }, 
    {
      "op": "null", 
      "name": "adj2_bias", 
      "attrs": {
        "kernel": "(1, 1)", 
        "num_filter": "32", 
        "stride": "(2, 2)"
      }, 
      "inputs": []
    }, 
    {
      "op": "Convolution", 
      "name": "adj2", 
      "attrs": {
        "kernel": "(1, 1)", 
        "num_filter": "32", 
        "stride": "(2, 2)"
      }, 
      "inputs": [[65, 0, 0], [78, 0, 0], [79, 0, 0]]
    }, 
    {
      "op": "elemwise_add", 
      "name": "_plus2", 
      "inputs": [[77, 0, 0], [80, 0, 0]]
    }, 
    {
      "op": "null", 
      "name": "bn2_a1_gamma", 
      "attrs": {"fix_gamma": "False"}, 
      "inputs": []
    }, 
    {
      "op": "null", 
      "name": "bn2_a1_beta", 
      "attrs": {"fix_gamma": "False"}, 
      "inputs": []
    }, 
    {
      "op": "null", 
      "name": "bn2_a1_moving_mean", 
      "attrs": {
        "__init__": "[\"zero\", {}]", 
        "fix_gamma": "False"
      }, 
      "inputs": []
    }, 
    {
      "op": "null", 
      "name": "bn2_a1_moving_var", 
      "attrs": {
        "__init__": "[\"one\", {}]", 
        "fix_gamma": "False"
      }, 
      "inputs": []
    }, 
    {
      "op": "BatchNorm", 
      "name": "bn2_a1", 
      "attrs": {"fix_gamma": "False"}, 
      "inputs": [[81, 0, 0], [82, 0, 0], [83, 0, 0], [84, 0, 1], [85, 0, 1]]
    }, 
    {
      "op": "Activation", 
      "name": "act2_a1", 
      "attrs": {"act_type": "relu"}, 
      "inputs": [[86, 0, 0]]
    }, 
    {
      "op": "null", 
      "name": "conv2_a1_weight", 
      "attrs": {
        "kernel": "(3, 3)", 
        "num_filter": "32", 
        "pad": "(1, 1)"
      }, 
      "inputs": []
    }, 
    {
      "op": "null", 
      "name": "conv2_a1_bias", 
      "attrs": {
        "kernel": "(3, 3)", 
        "num_filter": "32", 
        "pad": "(1, 1)"
      }, 
      "inputs": []
    }, 
    {
      "op": "Convolution", 
      "name": "conv2_a1", 
      "attrs": {
        "kernel": "(3, 3)", 
        "num_filter": "32", 
        "pad": "(1, 1)"
      }, 
      "inputs": [[87, 0, 0], [88, 0, 0], [89, 0, 0]]
    }, 
    {
      "op": "null", 
      "name": "bn2_b1_gamma", 
      "attrs": {"fix_gamma": "False"}, 
      "inputs": []
    }, 
    {
      "op": "null", 
      "name": "bn2_b1_beta", 
      "attrs": {"fix_gamma": "False"}, 
      "inputs": []
    }, 
    {
      "op": "null", 
      "name": "bn2_b1_moving_mean", 
      "attrs": {
        "__init__": "[\"zero\", {}]", 
        "fix_gamma": "False"
      }, 
      "inputs": []
    }, 
    {
      "op": "null", 
      "name": "bn2_b1_moving_var", 
      "attrs": {
        "__init__": "[\"one\", {}]", 
        "fix_gamma": "False"
      }, 
      "inputs": []
    }, 
    {
      "op": "BatchNorm", 
      "name": "bn2_b1", 
      "attrs": {"fix_gamma": "False"}, 
      "inputs": [[90, 0, 0], [91, 0, 0], [92, 0, 0], [93, 0, 1], [94, 0, 1]]
    }, 
    {
      "op": "Activation", 
      "name": "act2_b1", 
      "attrs": {"act_type": "relu"}, 
      "inputs": [[95, 0, 0]]
    }, 
    {
      "op": "null", 
      "name": "conv2_b1_weight", 
      "attrs": {
        "kernel": "(3, 3)", 
        "num_filter": "32", 
        "pad": "(1, 1)"
      }, 
      "inputs": []
    }, 
    {
      "op": "null", 
      "name": "conv2_b1_bias", 
      "attrs": {
        "kernel": "(3, 3)", 
        "num_filter": "32", 
        "pad": "(1, 1)"
      }, 
      "inputs": []
    }, 
    {
      "op": "Convolution", 
      "name": "conv2_b1", 
      "attrs": {
        "kernel": "(3, 3)", 
        "num_filter": "32", 
        "pad": "(1, 1)"
      }, 
      "inputs": [[96, 0, 0], [97, 0, 0], [98, 0, 0]]
    }, 
    {
      "op": "elemwise_add", 
      "name": "_plus3", 
      "inputs": [[99, 0, 0], [81, 0, 0]]
    }, 
    {
      "op": "null", 
      "name": "conv9854_weight", 
      "attrs": {
        "kernel": "(3, 3)", 
        "num_filter": "32", 
        "pad": "(1, 1)", 
        "stride": "(1, 1)"
      }, 
      "inputs": []
    }, 
    {
      "op": "null", 
      "name": "conv9854_bias", 
      "attrs": {
        "kernel": "(3, 3)", 
        "num_filter": "32", 
        "pad": "(1, 1)", 
        "stride": "(1, 1)"
      }, 
      "inputs": []
    }, 
    {
      "op": "Convolution", 
      "name": "conv9854", 
      "attrs": {
        "kernel": "(3, 3)", 
        "num_filter": "32", 
        "pad": "(1, 1)", 
        "stride": "(1, 1)"
      }, 
      "inputs": [[100, 0, 0], [101, 0, 0], [102, 0, 0]]
    }, 
    {
      "op": "null", 
      "name": "bn9854_gamma", 
      "attrs": {"fix_gamma": "False"}, 
      "inputs": []
    }, 
    {
      "op": "null", 
      "name": "bn9854_beta", 
      "attrs": {"fix_gamma": "False"}, 
      "inputs": []
    }, 
    {
      "op": "null", 
      "name": "bn9854_moving_mean", 
      "attrs": {
        "__init__": "[\"zero\", {}]", 
        "fix_gamma": "False"
      }, 
      "inputs": []
    }, 
    {
      "op": "null", 
      "name": "bn9854_moving_var", 
      "attrs": {
        "__init__": "[\"one\", {}]", 
        "fix_gamma": "False"
      }, 
      "inputs": []
    }, 
    {
      "op": "BatchNorm", 
      "name": "bn9854", 
      "attrs": {"fix_gamma": "False"}, 
      "inputs": [[103, 0, 0], [104, 0, 0], [105, 0, 0], [106, 0, 1], [107, 0, 1]]
    }, 
    {
      "op": "Activation", 
      "name": "act9854", 
      "attrs": {"act_type": "relu"}, 
      "inputs": [[108, 0, 0]]
    }, 
    {
      "op": "null", 
      "name": "bn4_a0_gamma", 
      "attrs": {"fix_gamma": "False"}, 
      "inputs": []
    }, 
    {
      "op": "null", 
      "name": "bn4_a0_beta", 
      "attrs": {"fix_gamma": "False"}, 
      "inputs": []
    }, 
    {
      "op": "null", 
      "name": "bn4_a0_moving_mean", 
      "attrs": {
        "__init__": "[\"zero\", {}]", 
        "fix_gamma": "False"
      }, 
      "inputs": []
    }, 
    {
      "op": "null", 
      "name": "bn4_a0_moving_var", 
      "attrs": {
        "__init__": "[\"one\", {}]", 
        "fix_gamma": "False"
      }, 
      "inputs": []
    }, 
    {
      "op": "BatchNorm", 
      "name": "bn4_a0", 
      "attrs": {"fix_gamma": "False"}, 
      "inputs": [[109, 0, 0], [110, 0, 0], [111, 0, 0], [112, 0, 1], [113, 0, 1]]
    }, 
    {
      "op": "Activation", 
      "name": "act4_a0", 
      "attrs": {"act_type": "relu"}, 
      "inputs": [[114, 0, 0]]
    }, 
    {
      "op": "null", 
      "name": "conv4_a0_weight", 
      "attrs": {
        "kernel": "(3, 3)", 
        "num_filter": "32", 
        "pad": "(1, 1)", 
        "stride": "(1, 1)"
      }, 
      "inputs": []
    }, 
    {
      "op": "null", 
      "name": "conv4_a0_bias", 
      "attrs": {
        "kernel": "(3, 3)", 
        "num_filter": "32", 
        "pad": "(1, 1)", 
        "stride": "(1, 1)"
      }, 
      "inputs": []
    }, 
    {
      "op": "Convolution", 
      "name": "conv4_a0", 
      "attrs": {
        "kernel": "(3, 3)", 
        "num_filter": "32", 
        "pad": "(1, 1)", 
        "stride": "(1, 1)"
      }, 
      "inputs": [[115, 0, 0], [116, 0, 0], [117, 0, 0]]
    }, 
    {
      "op": "null", 
      "name": "bn4_b0_gamma", 
      "attrs": {"fix_gamma": "False"}, 
      "inputs": []
    }, 
    {
      "op": "null", 
      "name": "bn4_b0_beta", 
      "attrs": {"fix_gamma": "False"}, 
      "inputs": []
    }, 
    {
      "op": "null", 
      "name": "bn4_b0_moving_mean", 
      "attrs": {
        "__init__": "[\"zero\", {}]", 
        "fix_gamma": "False"
      }, 
      "inputs": []
    }, 
    {
      "op": "null", 
      "name": "bn4_b0_moving_var", 
      "attrs": {
        "__init__": "[\"one\", {}]", 
        "fix_gamma": "False"
      }, 
      "inputs": []
    }, 
    {
      "op": "BatchNorm", 
      "name": "bn4_b0", 
      "attrs": {"fix_gamma": "False"}, 
      "inputs": [[118, 0, 0], [119, 0, 0], [120, 0, 0], [121, 0, 1], [122, 0, 1]]
    }, 
    {
      "op": "Activation", 
      "name": "act4_b0", 
      "attrs": {"act_type": "relu"}, 
      "inputs": [[123, 0, 0]]
    }, 
    {
      "op": "null", 
      "name": "conv4_b0_weight", 
      "attrs": {
        "kernel": "(3, 3)", 
        "num_filter": "32", 
        "pad": "(1, 1)"
      }, 
      "inputs": []
    }, 
    {
      "op": "null", 
      "name": "conv4_b0_bias", 
      "attrs": {
        "kernel": "(3, 3)", 
        "num_filter": "32", 
        "pad": "(1, 1)"
      }, 
      "inputs": []
    }, 
    {
      "op": "Convolution", 
      "name": "conv4_b0", 
      "attrs": {
        "kernel": "(3, 3)", 
        "num_filter": "32", 
        "pad": "(1, 1)"
      }, 
      "inputs": [[124, 0, 0], [125, 0, 0], [126, 0, 0]]
    }, 
    {
      "op": "null", 
      "name": "adj4_weight", 
      "attrs": {
        "kernel": "(1, 1)", 
        "num_filter": "32", 
        "stride": "(1, 1)"
      }, 
      "inputs": []
    }, 
    {
      "op": "null", 
      "name": "adj4_bias", 
      "attrs": {
        "kernel": "(1, 1)", 
        "num_filter": "32", 
        "stride": "(1, 1)"
      }, 
      "inputs": []
    }, 
    {
      "op": "Convolution", 
      "name": "adj4", 
      "attrs": {
        "kernel": "(1, 1)", 
        "num_filter": "32", 
        "stride": "(1, 1)"
      }, 
      "inputs": [[115, 0, 0], [128, 0, 0], [129, 0, 0]]
    }, 
    {
      "op": "elemwise_add", 
      "name": "_plus4", 
      "inputs": [[127, 0, 0], [130, 0, 0]]
    }, 
    {
      "op": "null", 
      "name": "bn4_a1_gamma", 
      "attrs": {"fix_gamma": "False"}, 
      "inputs": []
    }, 
    {
      "op": "null", 
      "name": "bn4_a1_beta", 
      "attrs": {"fix_gamma": "False"}, 
      "inputs": []
    }, 
    {
      "op": "null", 
      "name": "bn4_a1_moving_mean", 
      "attrs": {
        "__init__": "[\"zero\", {}]", 
        "fix_gamma": "False"
      }, 
      "inputs": []
    }, 
    {
      "op": "null", 
      "name": "bn4_a1_moving_var", 
      "attrs": {
        "__init__": "[\"one\", {}]", 
        "fix_gamma": "False"
      }, 
      "inputs": []
    }, 
    {
      "op": "BatchNorm", 
      "name": "bn4_a1", 
      "attrs": {"fix_gamma": "False"}, 
      "inputs": [[131, 0, 0], [132, 0, 0], [133, 0, 0], [134, 0, 1], [135, 0, 1]]
    }, 
    {
      "op": "Activation", 
      "name": "act4_a1", 
      "attrs": {"act_type": "relu"}, 
      "inputs": [[136, 0, 0]]
    }, 
    {
      "op": "null", 
      "name": "conv4_a1_weight", 
      "attrs": {
        "kernel": "(3, 3)", 
        "num_filter": "32", 
        "pad": "(1, 1)"
      }, 
      "inputs": []
    }, 
    {
      "op": "null", 
      "name": "conv4_a1_bias", 
      "attrs": {
        "kernel": "(3, 3)", 
        "num_filter": "32", 
        "pad": "(1, 1)"
      }, 
      "inputs": []
    }, 
    {
      "op": "Convolution", 
      "name": "conv4_a1", 
      "attrs": {
        "kernel": "(3, 3)", 
        "num_filter": "32", 
        "pad": "(1, 1)"
      }, 
      "inputs": [[137, 0, 0], [138, 0, 0], [139, 0, 0]]
    }, 
    {
      "op": "null", 
      "name": "bn4_b1_gamma", 
      "attrs": {"fix_gamma": "False"}, 
      "inputs": []
    }, 
    {
      "op": "null", 
      "name": "bn4_b1_beta", 
      "attrs": {"fix_gamma": "False"}, 
      "inputs": []
    }, 
    {
      "op": "null", 
      "name": "bn4_b1_moving_mean", 
      "attrs": {
        "__init__": "[\"zero\", {}]", 
        "fix_gamma": "False"
      }, 
      "inputs": []
    }, 
    {
      "op": "null", 
      "name": "bn4_b1_moving_var", 
      "attrs": {
        "__init__": "[\"one\", {}]", 
        "fix_gamma": "False"
      }, 
      "inputs": []
    }, 
    {
      "op": "BatchNorm", 
      "name": "bn4_b1", 
      "attrs": {"fix_gamma": "False"}, 
      "inputs": [[140, 0, 0], [141, 0, 0], [142, 0, 0], [143, 0, 1], [144, 0, 1]]
    }, 
    {
      "op": "Activation", 
      "name": "act4_b1", 
      "attrs": {"act_type": "relu"}, 
      "inputs": [[145, 0, 0]]
    }, 
    {
      "op": "null", 
      "name": "conv4_b1_weight", 
      "attrs": {
        "kernel": "(3, 3)", 
        "num_filter": "32", 
        "pad": "(1, 1)"
      }, 
      "inputs": []
    }, 
    {
      "op": "null", 
      "name": "conv4_b1_bias", 
      "attrs": {
        "kernel": "(3, 3)", 
        "num_filter": "32", 
        "pad": "(1, 1)"
      }, 
      "inputs": []
    }, 
    {
      "op": "Convolution", 
      "name": "conv4_b1", 
      "attrs": {
        "kernel": "(3, 3)", 
        "num_filter": "32", 
        "pad": "(1, 1)"
      }, 
      "inputs": [[146, 0, 0], [147, 0, 0], [148, 0, 0]]
    }, 
    {
      "op": "elemwise_add", 
      "name": "_plus5", 
      "inputs": [[149, 0, 0], [131, 0, 0]]
    }, 
    {
      "op": "null", 
      "name": "bnrestNet1_a0_gamma", 
      "attrs": {"fix_gamma": "False"}, 
      "inputs": []
    }, 
    {
      "op": "null", 
      "name": "bnrestNet1_a0_beta", 
      "attrs": {"fix_gamma": "False"}, 
      "inputs": []
    }, 
    {
      "op": "null", 
      "name": "bnrestNet1_a0_moving_mean", 
      "attrs": {
        "__init__": "[\"zero\", {}]", 
        "fix_gamma": "False"
      }, 
      "inputs": []
    }, 
    {
      "op": "null", 
      "name": "bnrestNet1_a0_moving_var", 
      "attrs": {
        "__init__": "[\"one\", {}]", 
        "fix_gamma": "False"
      }, 
      "inputs": []
    }, 
    {
      "op": "BatchNorm", 
      "name": "bnrestNet1_a0", 
      "attrs": {"fix_gamma": "False"}, 
      "inputs": [[150, 0, 0], [151, 0, 0], [152, 0, 0], [153, 0, 1], [154, 0, 1]]
    }, 
    {
      "op": "Activation", 
      "name": "actrestNet1_a0", 
      "attrs": {"act_type": "relu"}, 
      "inputs": [[155, 0, 0]]
    }, 
    {
      "op": "null", 
      "name": "convrestNet1_a0_weight", 
      "attrs": {
        "kernel": "(3, 3)", 
        "num_filter": "32", 
        "pad": "(1, 1)", 
        "stride": "(2, 2)"
      }, 
      "inputs": []
    }, 
    {
      "op": "null", 
      "name": "convrestNet1_a0_bias", 
      "attrs": {
        "kernel": "(3, 3)", 
        "num_filter": "32", 
        "pad": "(1, 1)", 
        "stride": "(2, 2)"
      }, 
      "inputs": []
    }, 
    {
      "op": "Convolution", 
      "name": "convrestNet1_a0", 
      "attrs": {
        "kernel": "(3, 3)", 
        "num_filter": "32", 
        "pad": "(1, 1)", 
        "stride": "(2, 2)"
      }, 
      "inputs": [[156, 0, 0], [157, 0, 0], [158, 0, 0]]
    }, 
    {
      "op": "null", 
      "name": "bnrestNet1_b0_gamma", 
      "attrs": {"fix_gamma": "False"}, 
      "inputs": []
    }, 
    {
      "op": "null", 
      "name": "bnrestNet1_b0_beta", 
      "attrs": {"fix_gamma": "False"}, 
      "inputs": []
    }, 
    {
      "op": "null", 
      "name": "bnrestNet1_b0_moving_mean", 
      "attrs": {
        "__init__": "[\"zero\", {}]", 
        "fix_gamma": "False"
      }, 
      "inputs": []
    }, 
    {
      "op": "null", 
      "name": "bnrestNet1_b0_moving_var", 
      "attrs": {
        "__init__": "[\"one\", {}]", 
        "fix_gamma": "False"
      }, 
      "inputs": []
    }, 
    {
      "op": "BatchNorm", 
      "name": "bnrestNet1_b0", 
      "attrs": {"fix_gamma": "False"}, 
      "inputs": [[159, 0, 0], [160, 0, 0], [161, 0, 0], [162, 0, 1], [163, 0, 1]]
    }, 
    {
      "op": "Activation", 
      "name": "actrestNet1_b0", 
      "attrs": {"act_type": "relu"}, 
      "inputs": [[164, 0, 0]]
    }, 
    {
      "op": "null", 
      "name": "convrestNet1_b0_weight", 
      "attrs": {
        "kernel": "(3, 3)", 
        "num_filter": "32", 
        "pad": "(1, 1)"
      }, 
      "inputs": []
    }, 
    {
      "op": "null", 
      "name": "convrestNet1_b0_bias", 
      "attrs": {
        "kernel": "(3, 3)", 
        "num_filter": "32", 
        "pad": "(1, 1)"
      }, 
      "inputs": []
    }, 
    {
      "op": "Convolution", 
      "name": "convrestNet1_b0", 
      "attrs": {
        "kernel": "(3, 3)", 
        "num_filter": "32", 
        "pad": "(1, 1)"
      }, 
      "inputs": [[165, 0, 0], [166, 0, 0], [167, 0, 0]]
    }, 
    {
      "op": "null", 
      "name": "adjrestNet1_weight", 
      "attrs": {
        "kernel": "(1, 1)", 
        "num_filter": "32", 
        "stride": "(2, 2)"
      }, 
      "inputs": []
    }, 
    {
      "op": "null", 
      "name": "adjrestNet1_bias", 
      "attrs": {
        "kernel": "(1, 1)", 
        "num_filter": "32", 
        "stride": "(2, 2)"
      }, 
      "inputs": []
    }, 
    {
      "op": "Convolution", 
      "name": "adjrestNet1", 
      "attrs": {
        "kernel": "(1, 1)", 
        "num_filter": "32", 
        "stride": "(2, 2)"
      }, 
      "inputs": [[156, 0, 0], [169, 0, 0], [170, 0, 0]]
    }, 
    {
      "op": "elemwise_add", 
      "name": "_plus12", 
      "inputs": [[168, 0, 0], [171, 0, 0]]
    }, 
    {
      "op": "null", 
      "name": "bnBranch1_gamma", 
      "attrs": {"fix_gamma": "False"}, 
      "inputs": []
    }, 
    {
      "op": "null", 
      "name": "bnBranch1_beta", 
      "attrs": {"fix_gamma": "False"}, 
      "inputs": []
    }, 
    {
      "op": "null", 
      "name": "bnBranch1_moving_mean", 
      "attrs": {
        "__init__": "[\"zero\", {}]", 
        "fix_gamma": "False"
      }, 
      "inputs": []
    }, 
    {
      "op": "null", 
      "name": "bnBranch1_moving_var", 
      "attrs": {
        "__init__": "[\"one\", {}]", 
        "fix_gamma": "False"
      }, 
      "inputs": []
    }, 
    {
      "op": "BatchNorm", 
      "name": "bnBranch1", 
      "attrs": {"fix_gamma": "False"}, 
      "inputs": [[172, 0, 0], [173, 0, 0], [174, 0, 0], [175, 0, 1], [176, 0, 1]]
    }, 
    {
      "op": "Activation", 
      "name": "actBranch1", 
      "attrs": {"act_type": "relu"}, 
      "inputs": [[177, 0, 0]]
    }, 
    {
      "op": "Pooling", 
      "name": "pool1", 
      "attrs": {
        "kernel": "(3, 3)", 
        "pad": "(1, 1)", 
        "pool_type": "avg", 
        "stride": "(1, 1)"
      }, 
      "inputs": [[178, 0, 0]]
    }, 
    {
      "op": "Flatten", 
      "name": "flatten1", 
      "inputs": [[179, 0, 0]]
    }, 
    {
      "op": "null", 
      "name": "fullyconnected0_weight", 
      "attrs": {"num_hidden": "10"}, 
      "inputs": []
    }, 
    {
      "op": "null", 
      "name": "fullyconnected0_bias", 
      "attrs": {"num_hidden": "10"}, 
      "inputs": []
    }, 
    {
      "op": "FullyConnected", 
      "name": "fullyconnected0", 
      "attrs": {"num_hidden": "10"}, 
      "inputs": [[180, 0, 0], [181, 0, 0], [182, 0, 0]]
    }, 
    {
      "op": "null", 
      "name": "bn5_a0_gamma", 
      "attrs": {"fix_gamma": "False"}, 
      "inputs": []
    }, 
    {
      "op": "null", 
      "name": "bn5_a0_beta", 
      "attrs": {"fix_gamma": "False"}, 
      "inputs": []
    }, 
    {
      "op": "null", 
      "name": "bn5_a0_moving_mean", 
      "attrs": {
        "__init__": "[\"zero\", {}]", 
        "fix_gamma": "False"
      }, 
      "inputs": []
    }, 
    {
      "op": "null", 
      "name": "bn5_a0_moving_var", 
      "attrs": {
        "__init__": "[\"one\", {}]", 
        "fix_gamma": "False"
      }, 
      "inputs": []
    }, 
    {
      "op": "BatchNorm", 
      "name": "bn5_a0", 
      "attrs": {"fix_gamma": "False"}, 
      "inputs": [[109, 0, 0], [184, 0, 0], [185, 0, 0], [186, 0, 1], [187, 0, 1]]
    }, 
    {
      "op": "Activation", 
      "name": "act5_a0", 
      "attrs": {"act_type": "relu"}, 
      "inputs": [[188, 0, 0]]
    }, 
    {
      "op": "null", 
      "name": "conv5_a0_weight", 
      "attrs": {
        "kernel": "(3, 3)", 
        "num_filter": "32", 
        "pad": "(1, 1)", 
        "stride": "(1, 1)"
      }, 
      "inputs": []
    }, 
    {
      "op": "null", 
      "name": "conv5_a0_bias", 
      "attrs": {
        "kernel": "(3, 3)", 
        "num_filter": "32", 
        "pad": "(1, 1)", 
        "stride": "(1, 1)"
      }, 
      "inputs": []
    }, 
    {
      "op": "Convolution", 
      "name": "conv5_a0", 
      "attrs": {
        "kernel": "(3, 3)", 
        "num_filter": "32", 
        "pad": "(1, 1)", 
        "stride": "(1, 1)"
      }, 
      "inputs": [[189, 0, 0], [190, 0, 0], [191, 0, 0]]
    }, 
    {
      "op": "null", 
      "name": "bn5_b0_gamma", 
      "attrs": {"fix_gamma": "False"}, 
      "inputs": []
    }, 
    {
      "op": "null", 
      "name": "bn5_b0_beta", 
      "attrs": {"fix_gamma": "False"}, 
      "inputs": []
    }, 
    {
      "op": "null", 
      "name": "bn5_b0_moving_mean", 
      "attrs": {
        "__init__": "[\"zero\", {}]", 
        "fix_gamma": "False"
      }, 
      "inputs": []
    }, 
    {
      "op": "null", 
      "name": "bn5_b0_moving_var", 
      "attrs": {
        "__init__": "[\"one\", {}]", 
        "fix_gamma": "False"
      }, 
      "inputs": []
    }, 
    {
      "op": "BatchNorm", 
      "name": "bn5_b0", 
      "attrs": {"fix_gamma": "False"}, 
      "inputs": [[192, 0, 0], [193, 0, 0], [194, 0, 0], [195, 0, 1], [196, 0, 1]]
    }, 
    {
      "op": "Activation", 
      "name": "act5_b0", 
      "attrs": {"act_type": "relu"}, 
      "inputs": [[197, 0, 0]]
    }, 
    {
      "op": "null", 
      "name": "conv5_b0_weight", 
      "attrs": {
        "kernel": "(3, 3)", 
        "num_filter": "32", 
        "pad": "(1, 1)"
      }, 
      "inputs": []
    }, 
    {
      "op": "null", 
      "name": "conv5_b0_bias", 
      "attrs": {
        "kernel": "(3, 3)", 
        "num_filter": "32", 
        "pad": "(1, 1)"
      }, 
      "inputs": []
    }, 
    {
      "op": "Convolution", 
      "name": "conv5_b0", 
      "attrs": {
        "kernel": "(3, 3)", 
        "num_filter": "32", 
        "pad": "(1, 1)"
      }, 
      "inputs": [[198, 0, 0], [199, 0, 0], [200, 0, 0]]
    }, 
    {
      "op": "null", 
      "name": "adj5_weight", 
      "attrs": {
        "kernel": "(1, 1)", 
        "num_filter": "32", 
        "stride": "(1, 1)"
      }, 
      "inputs": []
    }, 
    {
      "op": "null", 
      "name": "adj5_bias", 
      "attrs": {
        "kernel": "(1, 1)", 
        "num_filter": "32", 
        "stride": "(1, 1)"
      }, 
      "inputs": []
    }, 
    {
      "op": "Convolution", 
      "name": "adj5", 
      "attrs": {
        "kernel": "(1, 1)", 
        "num_filter": "32", 
        "stride": "(1, 1)"
      }, 
      "inputs": [[189, 0, 0], [202, 0, 0], [203, 0, 0]]
    }, 
    {
      "op": "elemwise_add", 
      "name": "_plus6", 
      "inputs": [[201, 0, 0], [204, 0, 0]]
    }, 
    {
      "op": "null", 
      "name": "bn5_a1_gamma", 
      "attrs": {"fix_gamma": "False"}, 
      "inputs": []
    }, 
    {
      "op": "null", 
      "name": "bn5_a1_beta", 
      "attrs": {"fix_gamma": "False"}, 
      "inputs": []
    }, 
    {
      "op": "null", 
      "name": "bn5_a1_moving_mean", 
      "attrs": {
        "__init__": "[\"zero\", {}]", 
        "fix_gamma": "False"
      }, 
      "inputs": []
    }, 
    {
      "op": "null", 
      "name": "bn5_a1_moving_var", 
      "attrs": {
        "__init__": "[\"one\", {}]", 
        "fix_gamma": "False"
      }, 
      "inputs": []
    }, 
    {
      "op": "BatchNorm", 
      "name": "bn5_a1", 
      "attrs": {"fix_gamma": "False"}, 
      "inputs": [[205, 0, 0], [206, 0, 0], [207, 0, 0], [208, 0, 1], [209, 0, 1]]
    }, 
    {
      "op": "Activation", 
      "name": "act5_a1", 
      "attrs": {"act_type": "relu"}, 
      "inputs": [[210, 0, 0]]
    }, 
    {
      "op": "null", 
      "name": "conv5_a1_weight", 
      "attrs": {
        "kernel": "(3, 3)", 
        "num_filter": "32", 
        "pad": "(1, 1)"
      }, 
      "inputs": []
    }, 
    {
      "op": "null", 
      "name": "conv5_a1_bias", 
      "attrs": {
        "kernel": "(3, 3)", 
        "num_filter": "32", 
        "pad": "(1, 1)"
      }, 
      "inputs": []
    }, 
    {
      "op": "Convolution", 
      "name": "conv5_a1", 
      "attrs": {
        "kernel": "(3, 3)", 
        "num_filter": "32", 
        "pad": "(1, 1)"
      }, 
      "inputs": [[211, 0, 0], [212, 0, 0], [213, 0, 0]]
    }, 
    {
      "op": "null", 
      "name": "bn5_b1_gamma", 
      "attrs": {"fix_gamma": "False"}, 
      "inputs": []
    }, 
    {
      "op": "null", 
      "name": "bn5_b1_beta", 
      "attrs": {"fix_gamma": "False"}, 
      "inputs": []
    }, 
    {
      "op": "null", 
      "name": "bn5_b1_moving_mean", 
      "attrs": {
        "__init__": "[\"zero\", {}]", 
        "fix_gamma": "False"
      }, 
      "inputs": []
    }, 
    {
      "op": "null", 
      "name": "bn5_b1_moving_var", 
      "attrs": {
        "__init__": "[\"one\", {}]", 
        "fix_gamma": "False"
      }, 
      "inputs": []
    }, 
    {
      "op": "BatchNorm", 
      "name": "bn5_b1", 
      "attrs": {"fix_gamma": "False"}, 
      "inputs": [[214, 0, 0], [215, 0, 0], [216, 0, 0], [217, 0, 1], [218, 0, 1]]
    }, 
    {
      "op": "Activation", 
      "name": "act5_b1", 
      "attrs": {"act_type": "relu"}, 
      "inputs": [[219, 0, 0]]
    }, 
    {
      "op": "null", 
      "name": "conv5_b1_weight", 
      "attrs": {
        "kernel": "(3, 3)", 
        "num_filter": "32", 
        "pad": "(1, 1)"
      }, 
      "inputs": []
    }, 
    {
      "op": "null", 
      "name": "conv5_b1_bias", 
      "attrs": {
        "kernel": "(3, 3)", 
        "num_filter": "32", 
        "pad": "(1, 1)"
      }, 
      "inputs": []
    }, 
    {
      "op": "Convolution", 
      "name": "conv5_b1", 
      "attrs": {
        "kernel": "(3, 3)", 
        "num_filter": "32", 
        "pad": "(1, 1)"
      }, 
      "inputs": [[220, 0, 0], [221, 0, 0], [222, 0, 0]]
    }, 
    {
      "op": "elemwise_add", 
      "name": "_plus7", 
      "inputs": [[223, 0, 0], [205, 0, 0]]
    }, 
    {
      "op": "null", 
      "name": "bnrestNet2_a0_gamma", 
      "attrs": {"fix_gamma": "False"}, 
      "inputs": []
    }, 
    {
      "op": "null", 
      "name": "bnrestNet2_a0_beta", 
      "attrs": {"fix_gamma": "False"}, 
      "inputs": []
    }, 
    {
      "op": "null", 
      "name": "bnrestNet2_a0_moving_mean", 
      "attrs": {
        "__init__": "[\"zero\", {}]", 
        "fix_gamma": "False"
      }, 
      "inputs": []
    }, 
    {
      "op": "null", 
      "name": "bnrestNet2_a0_moving_var", 
      "attrs": {
        "__init__": "[\"one\", {}]", 
        "fix_gamma": "False"
      }, 
      "inputs": []
    }, 
    {
      "op": "BatchNorm", 
      "name": "bnrestNet2_a0", 
      "attrs": {"fix_gamma": "False"}, 
      "inputs": [[224, 0, 0], [225, 0, 0], [226, 0, 0], [227, 0, 1], [228, 0, 1]]
    }, 
    {
      "op": "Activation", 
      "name": "actrestNet2_a0", 
      "attrs": {"act_type": "relu"}, 
      "inputs": [[229, 0, 0]]
    }, 
    {
      "op": "null", 
      "name": "convrestNet2_a0_weight", 
      "attrs": {
        "kernel": "(3, 3)", 
        "num_filter": "32", 
        "pad": "(1, 1)", 
        "stride": "(2, 2)"
      }, 
      "inputs": []
    }, 
    {
      "op": "null", 
      "name": "convrestNet2_a0_bias", 
      "attrs": {
        "kernel": "(3, 3)", 
        "num_filter": "32", 
        "pad": "(1, 1)", 
        "stride": "(2, 2)"
      }, 
      "inputs": []
    }, 
    {
      "op": "Convolution", 
      "name": "convrestNet2_a0", 
      "attrs": {
        "kernel": "(3, 3)", 
        "num_filter": "32", 
        "pad": "(1, 1)", 
        "stride": "(2, 2)"
      }, 
      "inputs": [[230, 0, 0], [231, 0, 0], [232, 0, 0]]
    }, 
    {
      "op": "null", 
      "name": "bnrestNet2_b0_gamma", 
      "attrs": {"fix_gamma": "False"}, 
      "inputs": []
    }, 
    {
      "op": "null", 
      "name": "bnrestNet2_b0_beta", 
      "attrs": {"fix_gamma": "False"}, 
      "inputs": []
    }, 
    {
      "op": "null", 
      "name": "bnrestNet2_b0_moving_mean", 
      "attrs": {
        "__init__": "[\"zero\", {}]", 
        "fix_gamma": "False"
      }, 
      "inputs": []
    }, 
    {
      "op": "null", 
      "name": "bnrestNet2_b0_moving_var", 
      "attrs": {
        "__init__": "[\"one\", {}]", 
        "fix_gamma": "False"
      }, 
      "inputs": []
    }, 
    {
      "op": "BatchNorm", 
      "name": "bnrestNet2_b0", 
      "attrs": {"fix_gamma": "False"}, 
      "inputs": [[233, 0, 0], [234, 0, 0], [235, 0, 0], [236, 0, 1], [237, 0, 1]]
    }, 
    {
      "op": "Activation", 
      "name": "actrestNet2_b0", 
      "attrs": {"act_type": "relu"}, 
      "inputs": [[238, 0, 0]]
    }, 
    {
      "op": "null", 
      "name": "convrestNet2_b0_weight", 
      "attrs": {
        "kernel": "(3, 3)", 
        "num_filter": "32", 
        "pad": "(1, 1)"
      }, 
      "inputs": []
    }, 
    {
      "op": "null", 
      "name": "convrestNet2_b0_bias", 
      "attrs": {
        "kernel": "(3, 3)", 
        "num_filter": "32", 
        "pad": "(1, 1)"
      }, 
      "inputs": []
    }, 
    {
      "op": "Convolution", 
      "name": "convrestNet2_b0", 
      "attrs": {
        "kernel": "(3, 3)", 
        "num_filter": "32", 
        "pad": "(1, 1)"
      }, 
      "inputs": [[239, 0, 0], [240, 0, 0], [241, 0, 0]]
    }, 
    {
      "op": "null", 
      "name": "adjrestNet2_weight", 
      "attrs": {
        "kernel": "(1, 1)", 
        "num_filter": "32", 
        "stride": "(2, 2)"
      }, 
      "inputs": []
    }, 
    {
      "op": "null", 
      "name": "adjrestNet2_bias", 
      "attrs": {
        "kernel": "(1, 1)", 
        "num_filter": "32", 
        "stride": "(2, 2)"
      }, 
      "inputs": []
    }, 
    {
      "op": "Convolution", 
      "name": "adjrestNet2", 
      "attrs": {
        "kernel": "(1, 1)", 
        "num_filter": "32", 
        "stride": "(2, 2)"
      }, 
      "inputs": [[230, 0, 0], [243, 0, 0], [244, 0, 0]]
    }, 
    {
      "op": "elemwise_add", 
      "name": "_plus13", 
      "inputs": [[242, 0, 0], [245, 0, 0]]
    }, 
    {
      "op": "null", 
      "name": "bnBranch2_gamma", 
      "attrs": {"fix_gamma": "False"}, 
      "inputs": []
    }, 
    {
      "op": "null", 
      "name": "bnBranch2_beta", 
      "attrs": {"fix_gamma": "False"}, 
      "inputs": []
    }, 
    {
      "op": "null", 
      "name": "bnBranch2_moving_mean", 
      "attrs": {
        "__init__": "[\"zero\", {}]", 
        "fix_gamma": "False"
      }, 
      "inputs": []
    }, 
    {
      "op": "null", 
      "name": "bnBranch2_moving_var", 
      "attrs": {
        "__init__": "[\"one\", {}]", 
        "fix_gamma": "False"
      }, 
      "inputs": []
    }, 
    {
      "op": "BatchNorm", 
      "name": "bnBranch2", 
      "attrs": {"fix_gamma": "False"}, 
      "inputs": [[246, 0, 0], [247, 0, 0], [248, 0, 0], [249, 0, 1], [250, 0, 1]]
    }, 
    {
      "op": "Activation", 
      "name": "actBranch2", 
      "attrs": {"act_type": "relu"}, 
      "inputs": [[251, 0, 0]]
    }, 
    {
      "op": "Pooling", 
      "name": "pool2", 
      "attrs": {
        "kernel": "(3, 3)", 
        "pad": "(1, 1)", 
        "pool_type": "avg", 
        "stride": "(1, 1)"
      }, 
      "inputs": [[252, 0, 0]]
    }, 
    {
      "op": "Flatten", 
      "name": "flatten2", 
      "inputs": [[253, 0, 0]]
    }, 
    {
      "op": "null", 
      "name": "fullyconnected1_weight", 
      "attrs": {"num_hidden": "10"}, 
      "inputs": []
    }, 
    {
      "op": "null", 
      "name": "fullyconnected1_bias", 
      "attrs": {"num_hidden": "10"}, 
      "inputs": []
    }, 
    {
      "op": "FullyConnected", 
      "name": "fullyconnected1", 
      "attrs": {"num_hidden": "10"}, 
      "inputs": [[254, 0, 0], [255, 0, 0], [256, 0, 0]]
    }, 
    {
      "op": "null", 
      "name": "bn6_a0_gamma", 
      "attrs": {"fix_gamma": "False"}, 
      "inputs": []
    }, 
    {
      "op": "null", 
      "name": "bn6_a0_beta", 
      "attrs": {"fix_gamma": "False"}, 
      "inputs": []
    }, 
    {
      "op": "null", 
      "name": "bn6_a0_moving_mean", 
      "attrs": {
        "__init__": "[\"zero\", {}]", 
        "fix_gamma": "False"
      }, 
      "inputs": []
    }, 
    {
      "op": "null", 
      "name": "bn6_a0_moving_var", 
      "attrs": {
        "__init__": "[\"one\", {}]", 
        "fix_gamma": "False"
      }, 
      "inputs": []
    }, 
    {
      "op": "BatchNorm", 
      "name": "bn6_a0", 
      "attrs": {"fix_gamma": "False"}, 
      "inputs": [[109, 0, 0], [258, 0, 0], [259, 0, 0], [260, 0, 1], [261, 0, 1]]
    }, 
    {
      "op": "Activation", 
      "name": "act6_a0", 
      "attrs": {"act_type": "relu"}, 
      "inputs": [[262, 0, 0]]
    }, 
    {
      "op": "null", 
      "name": "conv6_a0_weight", 
      "attrs": {
        "kernel": "(3, 3)", 
        "num_filter": "32", 
        "pad": "(1, 1)", 
        "stride": "(1, 1)"
      }, 
      "inputs": []
    }, 
    {
      "op": "null", 
      "name": "conv6_a0_bias", 
      "attrs": {
        "kernel": "(3, 3)", 
        "num_filter": "32", 
        "pad": "(1, 1)", 
        "stride": "(1, 1)"
      }, 
      "inputs": []
    }, 
    {
      "op": "Convolution", 
      "name": "conv6_a0", 
      "attrs": {
        "kernel": "(3, 3)", 
        "num_filter": "32", 
        "pad": "(1, 1)", 
        "stride": "(1, 1)"
      }, 
      "inputs": [[263, 0, 0], [264, 0, 0], [265, 0, 0]]
    }, 
    {
      "op": "null", 
      "name": "bn6_b0_gamma", 
      "attrs": {"fix_gamma": "False"}, 
      "inputs": []
    }, 
    {
      "op": "null", 
      "name": "bn6_b0_beta", 
      "attrs": {"fix_gamma": "False"}, 
      "inputs": []
    }, 
    {
      "op": "null", 
      "name": "bn6_b0_moving_mean", 
      "attrs": {
        "__init__": "[\"zero\", {}]", 
        "fix_gamma": "False"
      }, 
      "inputs": []
    }, 
    {
      "op": "null", 
      "name": "bn6_b0_moving_var", 
      "attrs": {
        "__init__": "[\"one\", {}]", 
        "fix_gamma": "False"
      }, 
      "inputs": []
    }, 
    {
      "op": "BatchNorm", 
      "name": "bn6_b0", 
      "attrs": {"fix_gamma": "False"}, 
      "inputs": [[266, 0, 0], [267, 0, 0], [268, 0, 0], [269, 0, 1], [270, 0, 1]]
    }, 
    {
      "op": "Activation", 
      "name": "act6_b0", 
      "attrs": {"act_type": "relu"}, 
      "inputs": [[271, 0, 0]]
    }, 
    {
      "op": "null", 
      "name": "conv6_b0_weight", 
      "attrs": {
        "kernel": "(3, 3)", 
        "num_filter": "32", 
        "pad": "(1, 1)"
      }, 
      "inputs": []
    }, 
    {
      "op": "null", 
      "name": "conv6_b0_bias", 
      "attrs": {
        "kernel": "(3, 3)", 
        "num_filter": "32", 
        "pad": "(1, 1)"
      }, 
      "inputs": []
    }, 
    {
      "op": "Convolution", 
      "name": "conv6_b0", 
      "attrs": {
        "kernel": "(3, 3)", 
        "num_filter": "32", 
        "pad": "(1, 1)"
      }, 
      "inputs": [[272, 0, 0], [273, 0, 0], [274, 0, 0]]
    }, 
    {
      "op": "null", 
      "name": "adj6_weight", 
      "attrs": {
        "kernel": "(1, 1)", 
        "num_filter": "32", 
        "stride": "(1, 1)"
      }, 
      "inputs": []
    }, 
    {
      "op": "null", 
      "name": "adj6_bias", 
      "attrs": {
        "kernel": "(1, 1)", 
        "num_filter": "32", 
        "stride": "(1, 1)"
      }, 
      "inputs": []
    }, 
    {
      "op": "Convolution", 
      "name": "adj6", 
      "attrs": {
        "kernel": "(1, 1)", 
        "num_filter": "32", 
        "stride": "(1, 1)"
      }, 
      "inputs": [[263, 0, 0], [276, 0, 0], [277, 0, 0]]
    }, 
    {
      "op": "elemwise_add", 
      "name": "_plus8", 
      "inputs": [[275, 0, 0], [278, 0, 0]]
    }, 
    {
      "op": "null", 
      "name": "bn6_a1_gamma", 
      "attrs": {"fix_gamma": "False"}, 
      "inputs": []
    }, 
    {
      "op": "null", 
      "name": "bn6_a1_beta", 
      "attrs": {"fix_gamma": "False"}, 
      "inputs": []
    }, 
    {
      "op": "null", 
      "name": "bn6_a1_moving_mean", 
      "attrs": {
        "__init__": "[\"zero\", {}]", 
        "fix_gamma": "False"
      }, 
      "inputs": []
    }, 
    {
      "op": "null", 
      "name": "bn6_a1_moving_var", 
      "attrs": {
        "__init__": "[\"one\", {}]", 
        "fix_gamma": "False"
      }, 
      "inputs": []
    }, 
    {
      "op": "BatchNorm", 
      "name": "bn6_a1", 
      "attrs": {"fix_gamma": "False"}, 
      "inputs": [[279, 0, 0], [280, 0, 0], [281, 0, 0], [282, 0, 1], [283, 0, 1]]
    }, 
    {
      "op": "Activation", 
      "name": "act6_a1", 
      "attrs": {"act_type": "relu"}, 
      "inputs": [[284, 0, 0]]
    }, 
    {
      "op": "null", 
      "name": "conv6_a1_weight", 
      "attrs": {
        "kernel": "(3, 3)", 
        "num_filter": "32", 
        "pad": "(1, 1)"
      }, 
      "inputs": []
    }, 
    {
      "op": "null", 
      "name": "conv6_a1_bias", 
      "attrs": {
        "kernel": "(3, 3)", 
        "num_filter": "32", 
        "pad": "(1, 1)"
      }, 
      "inputs": []
    }, 
    {
      "op": "Convolution", 
      "name": "conv6_a1", 
      "attrs": {
        "kernel": "(3, 3)", 
        "num_filter": "32", 
        "pad": "(1, 1)"
      }, 
      "inputs": [[285, 0, 0], [286, 0, 0], [287, 0, 0]]
    }, 
    {
      "op": "null", 
      "name": "bn6_b1_gamma", 
      "attrs": {"fix_gamma": "False"}, 
      "inputs": []
    }, 
    {
      "op": "null", 
      "name": "bn6_b1_beta", 
      "attrs": {"fix_gamma": "False"}, 
      "inputs": []
    }, 
    {
      "op": "null", 
      "name": "bn6_b1_moving_mean", 
      "attrs": {
        "__init__": "[\"zero\", {}]", 
        "fix_gamma": "False"
      }, 
      "inputs": []
    }, 
    {
      "op": "null", 
      "name": "bn6_b1_moving_var", 
      "attrs": {
        "__init__": "[\"one\", {}]", 
        "fix_gamma": "False"
      }, 
      "inputs": []
    }, 
    {
      "op": "BatchNorm", 
      "name": "bn6_b1", 
      "attrs": {"fix_gamma": "False"}, 
      "inputs": [[288, 0, 0], [289, 0, 0], [290, 0, 0], [291, 0, 1], [292, 0, 1]]
    }, 
    {
      "op": "Activation", 
      "name": "act6_b1", 
      "attrs": {"act_type": "relu"}, 
      "inputs": [[293, 0, 0]]
    }, 
    {
      "op": "null", 
      "name": "conv6_b1_weight", 
      "attrs": {
        "kernel": "(3, 3)", 
        "num_filter": "32", 
        "pad": "(1, 1)"
      }, 
      "inputs": []
    }, 
    {
      "op": "null", 
      "name": "conv6_b1_bias", 
      "attrs": {
        "kernel": "(3, 3)", 
        "num_filter": "32", 
        "pad": "(1, 1)"
      }, 
      "inputs": []
    }, 
    {
      "op": "Convolution", 
      "name": "conv6_b1", 
      "attrs": {
        "kernel": "(3, 3)", 
        "num_filter": "32", 
        "pad": "(1, 1)"
      }, 
      "inputs": [[294, 0, 0], [295, 0, 0], [296, 0, 0]]
    }, 
    {
      "op": "elemwise_add", 
      "name": "_plus9", 
      "inputs": [[297, 0, 0], [279, 0, 0]]
    }, 
    {
      "op": "null", 
      "name": "bnrestNet3_a0_gamma", 
      "attrs": {"fix_gamma": "False"}, 
      "inputs": []
    }, 
    {
      "op": "null", 
      "name": "bnrestNet3_a0_beta", 
      "attrs": {"fix_gamma": "False"}, 
      "inputs": []
    }, 
    {
      "op": "null", 
      "name": "bnrestNet3_a0_moving_mean", 
      "attrs": {
        "__init__": "[\"zero\", {}]", 
        "fix_gamma": "False"
      }, 
      "inputs": []
    }, 
    {
      "op": "null", 
      "name": "bnrestNet3_a0_moving_var", 
      "attrs": {
        "__init__": "[\"one\", {}]", 
        "fix_gamma": "False"
      }, 
      "inputs": []
    }, 
    {
      "op": "BatchNorm", 
      "name": "bnrestNet3_a0", 
      "attrs": {"fix_gamma": "False"}, 
      "inputs": [[298, 0, 0], [299, 0, 0], [300, 0, 0], [301, 0, 1], [302, 0, 1]]
    }, 
    {
      "op": "Activation", 
      "name": "actrestNet3_a0", 
      "attrs": {"act_type": "relu"}, 
      "inputs": [[303, 0, 0]]
    }, 
    {
      "op": "null", 
      "name": "convrestNet3_a0_weight", 
      "attrs": {
        "kernel": "(3, 3)", 
        "num_filter": "32", 
        "pad": "(1, 1)", 
        "stride": "(2, 2)"
      }, 
      "inputs": []
    }, 
    {
      "op": "null", 
      "name": "convrestNet3_a0_bias", 
      "attrs": {
        "kernel": "(3, 3)", 
        "num_filter": "32", 
        "pad": "(1, 1)", 
        "stride": "(2, 2)"
      }, 
      "inputs": []
    }, 
    {
      "op": "Convolution", 
      "name": "convrestNet3_a0", 
      "attrs": {
        "kernel": "(3, 3)", 
        "num_filter": "32", 
        "pad": "(1, 1)", 
        "stride": "(2, 2)"
      }, 
      "inputs": [[304, 0, 0], [305, 0, 0], [306, 0, 0]]
    }, 
    {
      "op": "null", 
      "name": "bnrestNet3_b0_gamma", 
      "attrs": {"fix_gamma": "False"}, 
      "inputs": []
    }, 
    {
      "op": "null", 
      "name": "bnrestNet3_b0_beta", 
      "attrs": {"fix_gamma": "False"}, 
      "inputs": []
    }, 
    {
      "op": "null", 
      "name": "bnrestNet3_b0_moving_mean", 
      "attrs": {
        "__init__": "[\"zero\", {}]", 
        "fix_gamma": "False"
      }, 
      "inputs": []
    }, 
    {
      "op": "null", 
      "name": "bnrestNet3_b0_moving_var", 
      "attrs": {
        "__init__": "[\"one\", {}]", 
        "fix_gamma": "False"
      }, 
      "inputs": []
    }, 
    {
      "op": "BatchNorm", 
      "name": "bnrestNet3_b0", 
      "attrs": {"fix_gamma": "False"}, 
      "inputs": [[307, 0, 0], [308, 0, 0], [309, 0, 0], [310, 0, 1], [311, 0, 1]]
    }, 
    {
      "op": "Activation", 
      "name": "actrestNet3_b0", 
      "attrs": {"act_type": "relu"}, 
      "inputs": [[312, 0, 0]]
    }, 
    {
      "op": "null", 
      "name": "convrestNet3_b0_weight", 
      "attrs": {
        "kernel": "(3, 3)", 
        "num_filter": "32", 
        "pad": "(1, 1)"
      }, 
      "inputs": []
    }, 
    {
      "op": "null", 
      "name": "convrestNet3_b0_bias", 
      "attrs": {
        "kernel": "(3, 3)", 
        "num_filter": "32", 
        "pad": "(1, 1)"
      }, 
      "inputs": []
    }, 
    {
      "op": "Convolution", 
      "name": "convrestNet3_b0", 
      "attrs": {
        "kernel": "(3, 3)", 
        "num_filter": "32", 
        "pad": "(1, 1)"
      }, 
      "inputs": [[313, 0, 0], [314, 0, 0], [315, 0, 0]]
    }, 
    {
      "op": "null", 
      "name": "adjrestNet3_weight", 
      "attrs": {
        "kernel": "(1, 1)", 
        "num_filter": "32", 
        "stride": "(2, 2)"
      }, 
      "inputs": []
    }, 
    {
      "op": "null", 
      "name": "adjrestNet3_bias", 
      "attrs": {
        "kernel": "(1, 1)", 
        "num_filter": "32", 
        "stride": "(2, 2)"
      }, 
      "inputs": []
    }, 
    {
      "op": "Convolution", 
      "name": "adjrestNet3", 
      "attrs": {
        "kernel": "(1, 1)", 
        "num_filter": "32", 
        "stride": "(2, 2)"
      }, 
      "inputs": [[304, 0, 0], [317, 0, 0], [318, 0, 0]]
    }, 
    {
      "op": "elemwise_add", 
      "name": "_plus14", 
      "inputs": [[316, 0, 0], [319, 0, 0]]
    }, 
    {
      "op": "null", 
      "name": "bnBranch3_gamma", 
      "attrs": {"fix_gamma": "False"}, 
      "inputs": []
    }, 
    {
      "op": "null", 
      "name": "bnBranch3_beta", 
      "attrs": {"fix_gamma": "False"}, 
      "inputs": []
    }, 
    {
      "op": "null", 
      "name": "bnBranch3_moving_mean", 
      "attrs": {
        "__init__": "[\"zero\", {}]", 
        "fix_gamma": "False"
      }, 
      "inputs": []
    }, 
    {
      "op": "null", 
      "name": "bnBranch3_moving_var", 
      "attrs": {
        "__init__": "[\"one\", {}]", 
        "fix_gamma": "False"
      }, 
      "inputs": []
    }, 
    {
      "op": "BatchNorm", 
      "name": "bnBranch3", 
      "attrs": {"fix_gamma": "False"}, 
      "inputs": [[320, 0, 0], [321, 0, 0], [322, 0, 0], [323, 0, 1], [324, 0, 1]]
    }, 
    {
      "op": "Activation", 
      "name": "actBranch3", 
      "attrs": {"act_type": "relu"}, 
      "inputs": [[325, 0, 0]]
    }, 
    {
      "op": "Pooling", 
      "name": "pool3", 
      "attrs": {
        "kernel": "(3, 3)", 
        "pad": "(1, 1)", 
        "pool_type": "avg", 
        "stride": "(1, 1)"
      }, 
      "inputs": [[326, 0, 0]]
    }, 
    {
      "op": "Flatten", 
      "name": "flatten3", 
      "inputs": [[327, 0, 0]]
    }, 
    {
      "op": "null", 
      "name": "fullyconnected2_weight", 
      "attrs": {"num_hidden": "10"}, 
      "inputs": []
    }, 
    {
      "op": "null", 
      "name": "fullyconnected2_bias", 
      "attrs": {"num_hidden": "10"}, 
      "inputs": []
    }, 
    {
      "op": "FullyConnected", 
      "name": "fullyconnected2", 
      "attrs": {"num_hidden": "10"}, 
      "inputs": [[328, 0, 0], [329, 0, 0], [330, 0, 0]]
    }, 
    {
      "op": "null", 
      "name": "bn7_a0_gamma", 
      "attrs": {"fix_gamma": "False"}, 
      "inputs": []
    }, 
    {
      "op": "null", 
      "name": "bn7_a0_beta", 
      "attrs": {"fix_gamma": "False"}, 
      "inputs": []
    }, 
    {
      "op": "null", 
      "name": "bn7_a0_moving_mean", 
      "attrs": {
        "__init__": "[\"zero\", {}]", 
        "fix_gamma": "False"
      }, 
      "inputs": []
    }, 
    {
      "op": "null", 
      "name": "bn7_a0_moving_var", 
      "attrs": {
        "__init__": "[\"one\", {}]", 
        "fix_gamma": "False"
      }, 
      "inputs": []
    }, 
    {
      "op": "BatchNorm", 
      "name": "bn7_a0", 
      "attrs": {"fix_gamma": "False"}, 
      "inputs": [[109, 0, 0], [332, 0, 0], [333, 0, 0], [334, 0, 1], [335, 0, 1]]
    }, 
    {
      "op": "Activation", 
      "name": "act7_a0", 
      "attrs": {"act_type": "relu"}, 
      "inputs": [[336, 0, 0]]
    }, 
    {
      "op": "null", 
      "name": "conv7_a0_weight", 
      "attrs": {
        "kernel": "(3, 3)", 
        "num_filter": "32", 
        "pad": "(1, 1)", 
        "stride": "(1, 1)"
      }, 
      "inputs": []
    }, 
    {
      "op": "null", 
      "name": "conv7_a0_bias", 
      "attrs": {
        "kernel": "(3, 3)", 
        "num_filter": "32", 
        "pad": "(1, 1)", 
        "stride": "(1, 1)"
      }, 
      "inputs": []
    }, 
    {
      "op": "Convolution", 
      "name": "conv7_a0", 
      "attrs": {
        "kernel": "(3, 3)", 
        "num_filter": "32", 
        "pad": "(1, 1)", 
        "stride": "(1, 1)"
      }, 
      "inputs": [[337, 0, 0], [338, 0, 0], [339, 0, 0]]
    }, 
    {
      "op": "null", 
      "name": "bn7_b0_gamma", 
      "attrs": {"fix_gamma": "False"}, 
      "inputs": []
    }, 
    {
      "op": "null", 
      "name": "bn7_b0_beta", 
      "attrs": {"fix_gamma": "False"}, 
      "inputs": []
    }, 
    {
      "op": "null", 
      "name": "bn7_b0_moving_mean", 
      "attrs": {
        "__init__": "[\"zero\", {}]", 
        "fix_gamma": "False"
      }, 
      "inputs": []
    }, 
    {
      "op": "null", 
      "name": "bn7_b0_moving_var", 
      "attrs": {
        "__init__": "[\"one\", {}]", 
        "fix_gamma": "False"
      }, 
      "inputs": []
    }, 
    {
      "op": "BatchNorm", 
      "name": "bn7_b0", 
      "attrs": {"fix_gamma": "False"}, 
      "inputs": [[340, 0, 0], [341, 0, 0], [342, 0, 0], [343, 0, 1], [344, 0, 1]]
    }, 
    {
      "op": "Activation", 
      "name": "act7_b0", 
      "attrs": {"act_type": "relu"}, 
      "inputs": [[345, 0, 0]]
    }, 
    {
      "op": "null", 
      "name": "conv7_b0_weight", 
      "attrs": {
        "kernel": "(3, 3)", 
        "num_filter": "32", 
        "pad": "(1, 1)"
      }, 
      "inputs": []
    }, 
    {
      "op": "null", 
      "name": "conv7_b0_bias", 
      "attrs": {
        "kernel": "(3, 3)", 
        "num_filter": "32", 
        "pad": "(1, 1)"
      }, 
      "inputs": []
    }, 
    {
      "op": "Convolution", 
      "name": "conv7_b0", 
      "attrs": {
        "kernel": "(3, 3)", 
        "num_filter": "32", 
        "pad": "(1, 1)"
      }, 
      "inputs": [[346, 0, 0], [347, 0, 0], [348, 0, 0]]
    }, 
    {
      "op": "null", 
      "name": "adj7_weight", 
      "attrs": {
        "kernel": "(1, 1)", 
        "num_filter": "32", 
        "stride": "(1, 1)"
      }, 
      "inputs": []
    }, 
    {
      "op": "null", 
      "name": "adj7_bias", 
      "attrs": {
        "kernel": "(1, 1)", 
        "num_filter": "32", 
        "stride": "(1, 1)"
      }, 
      "inputs": []
    }, 
    {
      "op": "Convolution", 
      "name": "adj7", 
      "attrs": {
        "kernel": "(1, 1)", 
        "num_filter": "32", 
        "stride": "(1, 1)"
      }, 
      "inputs": [[337, 0, 0], [350, 0, 0], [351, 0, 0]]
    }, 
    {
      "op": "elemwise_add", 
      "name": "_plus10", 
      "inputs": [[349, 0, 0], [352, 0, 0]]
    }, 
    {
      "op": "null", 
      "name": "bn7_a1_gamma", 
      "attrs": {"fix_gamma": "False"}, 
      "inputs": []
    }, 
    {
      "op": "null", 
      "name": "bn7_a1_beta", 
      "attrs": {"fix_gamma": "False"}, 
      "inputs": []
    }, 
    {
      "op": "null", 
      "name": "bn7_a1_moving_mean", 
      "attrs": {
        "__init__": "[\"zero\", {}]", 
        "fix_gamma": "False"
      }, 
      "inputs": []
    }, 
    {
      "op": "null", 
      "name": "bn7_a1_moving_var", 
      "attrs": {
        "__init__": "[\"one\", {}]", 
        "fix_gamma": "False"
      }, 
      "inputs": []
    }, 
    {
      "op": "BatchNorm", 
      "name": "bn7_a1", 
      "attrs": {"fix_gamma": "False"}, 
      "inputs": [[353, 0, 0], [354, 0, 0], [355, 0, 0], [356, 0, 1], [357, 0, 1]]
    }, 
    {
      "op": "Activation", 
      "name": "act7_a1", 
      "attrs": {"act_type": "relu"}, 
      "inputs": [[358, 0, 0]]
    }, 
    {
      "op": "null", 
      "name": "conv7_a1_weight", 
      "attrs": {
        "kernel": "(3, 3)", 
        "num_filter": "32", 
        "pad": "(1, 1)"
      }, 
      "inputs": []
    }, 
    {
      "op": "null", 
      "name": "conv7_a1_bias", 
      "attrs": {
        "kernel": "(3, 3)", 
        "num_filter": "32", 
        "pad": "(1, 1)"
      }, 
      "inputs": []
    }, 
    {
      "op": "Convolution", 
      "name": "conv7_a1", 
      "attrs": {
        "kernel": "(3, 3)", 
        "num_filter": "32", 
        "pad": "(1, 1)"
      }, 
      "inputs": [[359, 0, 0], [360, 0, 0], [361, 0, 0]]
    }, 
    {
      "op": "null", 
      "name": "bn7_b1_gamma", 
      "attrs": {"fix_gamma": "False"}, 
      "inputs": []
    }, 
    {
      "op": "null", 
      "name": "bn7_b1_beta", 
      "attrs": {"fix_gamma": "False"}, 
      "inputs": []
    }, 
    {
      "op": "null", 
      "name": "bn7_b1_moving_mean", 
      "attrs": {
        "__init__": "[\"zero\", {}]", 
        "fix_gamma": "False"
      }, 
      "inputs": []
    }, 
    {
      "op": "null", 
      "name": "bn7_b1_moving_var", 
      "attrs": {
        "__init__": "[\"one\", {}]", 
        "fix_gamma": "False"
      }, 
      "inputs": []
    }, 
    {
      "op": "BatchNorm", 
      "name": "bn7_b1", 
      "attrs": {"fix_gamma": "False"}, 
      "inputs": [[362, 0, 0], [363, 0, 0], [364, 0, 0], [365, 0, 1], [366, 0, 1]]
    }, 
    {
      "op": "Activation", 
      "name": "act7_b1", 
      "attrs": {"act_type": "relu"}, 
      "inputs": [[367, 0, 0]]
    }, 
    {
      "op": "null", 
      "name": "conv7_b1_weight", 
      "attrs": {
        "kernel": "(3, 3)", 
        "num_filter": "32", 
        "pad": "(1, 1)"
      }, 
      "inputs": []
    }, 
    {
      "op": "null", 
      "name": "conv7_b1_bias", 
      "attrs": {
        "kernel": "(3, 3)", 
        "num_filter": "32", 
        "pad": "(1, 1)"
      }, 
      "inputs": []
    }, 
    {
      "op": "Convolution", 
      "name": "conv7_b1", 
      "attrs": {
        "kernel": "(3, 3)", 
        "num_filter": "32", 
        "pad": "(1, 1)"
      }, 
      "inputs": [[368, 0, 0], [369, 0, 0], [370, 0, 0]]
    }, 
    {
      "op": "elemwise_add", 
      "name": "_plus11", 
      "inputs": [[371, 0, 0], [353, 0, 0]]
    }, 
    {
      "op": "null", 
      "name": "bnrestNet4_a0_gamma", 
      "attrs": {"fix_gamma": "False"}, 
      "inputs": []
    }, 
    {
      "op": "null", 
      "name": "bnrestNet4_a0_beta", 
      "attrs": {"fix_gamma": "False"}, 
      "inputs": []
    }, 
    {
      "op": "null", 
      "name": "bnrestNet4_a0_moving_mean", 
      "attrs": {
        "__init__": "[\"zero\", {}]", 
        "fix_gamma": "False"
      }, 
      "inputs": []
    }, 
    {
      "op": "null", 
      "name": "bnrestNet4_a0_moving_var", 
      "attrs": {
        "__init__": "[\"one\", {}]", 
        "fix_gamma": "False"
      }, 
      "inputs": []
    }, 
    {
      "op": "BatchNorm", 
      "name": "bnrestNet4_a0", 
      "attrs": {"fix_gamma": "False"}, 
      "inputs": [[372, 0, 0], [373, 0, 0], [374, 0, 0], [375, 0, 1], [376, 0, 1]]
    }, 
    {
      "op": "Activation", 
      "name": "actrestNet4_a0", 
      "attrs": {"act_type": "relu"}, 
      "inputs": [[377, 0, 0]]
    }, 
    {
      "op": "null", 
      "name": "convrestNet4_a0_weight", 
      "attrs": {
        "kernel": "(3, 3)", 
        "num_filter": "32", 
        "pad": "(1, 1)", 
        "stride": "(2, 2)"
      }, 
      "inputs": []
    }, 
    {
      "op": "null", 
      "name": "convrestNet4_a0_bias", 
      "attrs": {
        "kernel": "(3, 3)", 
        "num_filter": "32", 
        "pad": "(1, 1)", 
        "stride": "(2, 2)"
      }, 
      "inputs": []
    }, 
    {
      "op": "Convolution", 
      "name": "convrestNet4_a0", 
      "attrs": {
        "kernel": "(3, 3)", 
        "num_filter": "32", 
        "pad": "(1, 1)", 
        "stride": "(2, 2)"
      }, 
      "inputs": [[378, 0, 0], [379, 0, 0], [380, 0, 0]]
    }, 
    {
      "op": "null", 
      "name": "bnrestNet4_b0_gamma", 
      "attrs": {"fix_gamma": "False"}, 
      "inputs": []
    }, 
    {
      "op": "null", 
      "name": "bnrestNet4_b0_beta", 
      "attrs": {"fix_gamma": "False"}, 
      "inputs": []
    }, 
    {
      "op": "null", 
      "name": "bnrestNet4_b0_moving_mean", 
      "attrs": {
        "__init__": "[\"zero\", {}]", 
        "fix_gamma": "False"
      }, 
      "inputs": []
    }, 
    {
      "op": "null", 
      "name": "bnrestNet4_b0_moving_var", 
      "attrs": {
        "__init__": "[\"one\", {}]", 
        "fix_gamma": "False"
      }, 
      "inputs": []
    }, 
    {
      "op": "BatchNorm", 
      "name": "bnrestNet4_b0", 
      "attrs": {"fix_gamma": "False"}, 
      "inputs": [[381, 0, 0], [382, 0, 0], [383, 0, 0], [384, 0, 1], [385, 0, 1]]
    }, 
    {
      "op": "Activation", 
      "name": "actrestNet4_b0", 
      "attrs": {"act_type": "relu"}, 
      "inputs": [[386, 0, 0]]
    }, 
    {
      "op": "null", 
      "name": "convrestNet4_b0_weight", 
      "attrs": {
        "kernel": "(3, 3)", 
        "num_filter": "32", 
        "pad": "(1, 1)"
      }, 
      "inputs": []
    }, 
    {
      "op": "null", 
      "name": "convrestNet4_b0_bias", 
      "attrs": {
        "kernel": "(3, 3)", 
        "num_filter": "32", 
        "pad": "(1, 1)"
      }, 
      "inputs": []
    }, 
    {
      "op": "Convolution", 
      "name": "convrestNet4_b0", 
      "attrs": {
        "kernel": "(3, 3)", 
        "num_filter": "32", 
        "pad": "(1, 1)"
      }, 
      "inputs": [[387, 0, 0], [388, 0, 0], [389, 0, 0]]
    }, 
    {
      "op": "null", 
      "name": "adjrestNet4_weight", 
      "attrs": {
        "kernel": "(1, 1)", 
        "num_filter": "32", 
        "stride": "(2, 2)"
      }, 
      "inputs": []
    }, 
    {
      "op": "null", 
      "name": "adjrestNet4_bias", 
      "attrs": {
        "kernel": "(1, 1)", 
        "num_filter": "32", 
        "stride": "(2, 2)"
      }, 
      "inputs": []
    }, 
    {
      "op": "Convolution", 
      "name": "adjrestNet4", 
      "attrs": {
        "kernel": "(1, 1)", 
        "num_filter": "32", 
        "stride": "(2, 2)"
      }, 
      "inputs": [[378, 0, 0], [391, 0, 0], [392, 0, 0]]
    }, 
    {
      "op": "elemwise_add", 
      "name": "_plus15", 
      "inputs": [[390, 0, 0], [393, 0, 0]]
    }, 
    {
      "op": "null", 
      "name": "bnBranch4_gamma", 
      "attrs": {"fix_gamma": "False"}, 
      "inputs": []
    }, 
    {
      "op": "null", 
      "name": "bnBranch4_beta", 
      "attrs": {"fix_gamma": "False"}, 
      "inputs": []
    }, 
    {
      "op": "null", 
      "name": "bnBranch4_moving_mean", 
      "attrs": {
        "__init__": "[\"zero\", {}]", 
        "fix_gamma": "False"
      }, 
      "inputs": []
    }, 
    {
      "op": "null", 
      "name": "bnBranch4_moving_var", 
      "attrs": {
        "__init__": "[\"one\", {}]", 
        "fix_gamma": "False"
      }, 
      "inputs": []
    }, 
    {
      "op": "BatchNorm", 
      "name": "bnBranch4", 
      "attrs": {"fix_gamma": "False"}, 
      "inputs": [[394, 0, 0], [395, 0, 0], [396, 0, 0], [397, 0, 1], [398, 0, 1]]
    }, 
    {
      "op": "Activation", 
      "name": "actBranch4", 
      "attrs": {"act_type": "relu"}, 
      "inputs": [[399, 0, 0]]
    }, 
    {
      "op": "Pooling", 
      "name": "pool4", 
      "attrs": {
        "kernel": "(3, 3)", 
        "pad": "(1, 1)", 
        "pool_type": "avg", 
        "stride": "(1, 1)"
      }, 
      "inputs": [[400, 0, 0]]
    }, 
    {
      "op": "Flatten", 
      "name": "flatten4", 
      "inputs": [[401, 0, 0]]
    }, 
    {
      "op": "null", 
      "name": "fullyconnected3_weight", 
      "attrs": {"num_hidden": "10"}, 
      "inputs": []
    }, 
    {
      "op": "null", 
      "name": "fullyconnected3_bias", 
      "attrs": {"num_hidden": "10"}, 
      "inputs": []
    }, 
    {
      "op": "FullyConnected", 
      "name": "fullyconnected3", 
      "attrs": {"num_hidden": "10"}, 
      "inputs": [[402, 0, 0], [403, 0, 0], [404, 0, 0]]
    }, 
    {
      "op": "Concat", 
      "name": "concat0", 
      "attrs": {
        "dim": "0", 
        "num_args": "4"
      }, 
      "inputs": [[183, 0, 0], [257, 0, 0], [331, 0, 0], [405, 0, 0]]
    }, 
    {
      "op": "null", 
      "name": "softmax_label", 
      "inputs": []
    }, 
    {
      "op": "transpose", 
      "name": "transpose0", 
      "inputs": [[407, 0, 0]]
    }, 
    {
      "op": "Reshape", 
      "name": "reshape0", 
      "attrs": {"target_shape": "(0,)"}, 
      "inputs": [[408, 0, 0]]
    }, 
    {
      "op": "SoftmaxOutput", 
      "name": "Softmax", 
      "inputs": [[406, 0, 0], [409, 0, 0]]
    }
  ], 
  "arg_nodes": [
    0, 
    1, 
    2, 
    4, 
    5, 
    6, 
    7, 
    10, 
    11, 
    12, 
    13, 
    16, 
    17, 
    19, 
    20, 
    21, 
    22, 
    25, 
    26, 
    28, 
    29, 
    32, 
    33, 
    34, 
    35, 
    38, 
    39, 
    41, 
    42, 
    43, 
    44, 
    47, 
    48, 
    51, 
    52, 
    54, 
    55, 
    56, 
    57, 
    60, 
    61, 
    62, 
    63, 
    66, 
    67, 
    69, 
    70, 
    71, 
    72, 
    75, 
    76, 
    78, 
    79, 
    82, 
    83, 
    84, 
    85, 
    88, 
    89, 
    91, 
    92, 
    93, 
    94, 
    97, 
    98, 
    101, 
    102, 
    104, 
    105, 
    106, 
    107, 
    110, 
    111, 
    112, 
    113, 
    116, 
    117, 
    119, 
    120, 
    121, 
    122, 
    125, 
    126, 
    128, 
    129, 
    132, 
    133, 
    134, 
    135, 
    138, 
    139, 
    141, 
    142, 
    143, 
    144, 
    147, 
    148, 
    151, 
    152, 
    153, 
    154, 
    157, 
    158, 
    160, 
    161, 
    162, 
    163, 
    166, 
    167, 
    169, 
    170, 
    173, 
    174, 
    175, 
    176, 
    181, 
    182, 
    184, 
    185, 
    186, 
    187, 
    190, 
    191, 
    193, 
    194, 
    195, 
    196, 
    199, 
    200, 
    202, 
    203, 
    206, 
    207, 
    208, 
    209, 
    212, 
    213, 
    215, 
    216, 
    217, 
    218, 
    221, 
    222, 
    225, 
    226, 
    227, 
    228, 
    231, 
    232, 
    234, 
    235, 
    236, 
    237, 
    240, 
    241, 
    243, 
    244, 
    247, 
    248, 
    249, 
    250, 
    255, 
    256, 
    258, 
    259, 
    260, 
    261, 
    264, 
    265, 
    267, 
    268, 
    269, 
    270, 
    273, 
    274, 
    276, 
    277, 
    280, 
    281, 
    282, 
    283, 
    286, 
    287, 
    289, 
    290, 
    291, 
    292, 
    295, 
    296, 
    299, 
    300, 
    301, 
    302, 
    305, 
    306, 
    308, 
    309, 
    310, 
    311, 
    314, 
    315, 
    317, 
    318, 
    321, 
    322, 
    323, 
    324, 
    329, 
    330, 
    332, 
    333, 
    334, 
    335, 
    338, 
    339, 
    341, 
    342, 
    343, 
    344, 
    347, 
    348, 
    350, 
    351, 
    354, 
    355, 
    356, 
    357, 
    360, 
    361, 
    363, 
    364, 
    365, 
    366, 
    369, 
    370, 
    373, 
    374, 
    375, 
    376, 
    379, 
    380, 
    382, 
    383, 
    384, 
    385, 
    388, 
    389, 
    391, 
    392, 
    395, 
    396, 
    397, 
    398, 
    403, 
    404, 
    407
  ], 
  "node_row_ptr": [
    0, 
    1, 
    2, 
    3, 
    4, 
    5, 
    6, 
    7, 
    8, 
    11, 
    12, 
    13, 
    14, 
    15, 
    16, 
    19, 
    20, 
    21, 
    22, 
    23, 
    24, 
    25, 
    26, 
    27, 
    30, 
    31, 
    32, 
    33, 
    34, 
    35, 
    36, 
    37, 
    38, 
    39, 
    40, 
    41, 
    42, 
    45, 
    46, 
    47, 
    48, 
    49, 
    50, 
    51, 
    52, 
    53, 
    56, 
    57, 
    58, 
    59, 
    60, 
    61, 
    62, 
    63, 
    64, 
    65, 
    66, 
    67, 
    68, 
    71, 
    72, 
    73, 
    74, 
    75, 
    76, 
    79, 
    80, 
    81, 
    82, 
    83, 
    84, 
    85, 
    86, 
    87, 
    90, 
    91, 
    92, 
    93, 
    94, 
    95, 
    96, 
    97, 
    98, 
    99, 
    100, 
    101, 
    102, 
    105, 
    106, 
    107, 
    108, 
    109, 
    110, 
    111, 
    112, 
    113, 
    116, 
    117, 
    118, 
    119, 
    120, 
    121, 
    122, 
    123, 
    124, 
    125, 
    126, 
    127, 
    128, 
    131, 
    132, 
    133, 
    134, 
    135, 
    136, 
    139, 
    140, 
    141, 
    142, 
    143, 
    144, 
    145, 
    146, 
    147, 
    150, 
    151, 
    152, 
    153, 
    154, 
    155, 
    156, 
    157, 
    158, 
    159, 
    160, 
    161, 
    162, 
    165, 
    166, 
    167, 
    168, 
    169, 
    170, 
    171, 
    172, 
    173, 
    176, 
    177, 
    178, 
    179, 
    180, 
    181, 
    182, 
    183, 
    184, 
    185, 
    188, 
    189, 
    190, 
    191, 
    192, 
    193, 
    194, 
    195, 
    196, 
    199, 
    200, 
    201, 
    202, 
    203, 
    204, 
    205, 
    206, 
    207, 
    208, 
    209, 
    210, 
    211, 
    214, 
    215, 
    216, 
    217, 
    218, 
    219, 
    220, 
    221, 
    222, 
    223, 
    224, 
    227, 
    228, 
    229, 
    230, 
    231, 
    232, 
    233, 
    234, 
    235, 
    238, 
    239, 
    240, 
    241, 
    242, 
    243, 
    244, 
    245, 
    246, 
    247, 
    248, 
    249, 
    250, 
    253, 
    254, 
    255, 
    256, 
    257, 
    258, 
    259, 
    260, 
    261, 
    264, 
    265, 
    266, 
    267, 
    268, 
    269, 
    270, 
    271, 
    272, 
    273, 
    276, 
    277, 
    278, 
    279, 
    280, 
    281, 
    282, 
    283, 
    284, 
    287, 
    288, 
    289, 
    290, 
    291, 
    292, 
    293, 
    294, 
    295, 
    296, 
    297, 
    298, 
    299, 
    302, 
    303, 
    304, 
    305, 
    306, 
    307, 
    308, 
    309, 
    310, 
    311, 
    312, 
    315, 
    316, 
    317, 
    318, 
    319, 
    320, 
    321, 
    322, 
    323, 
    326, 
    327, 
    328, 
    329, 
    330, 
    331, 
    332, 
    333, 
    334, 
    335, 
    336, 
    337, 
    338, 
    341, 
    342, 
    343, 
    344, 
    345, 
    346, 
    347, 
    348, 
    349, 
    352, 
    353, 
    354, 
    355, 
    356, 
    357, 
    358, 
    359, 
    360, 
    361, 
    364, 
    365, 
    366, 
    367, 
    368, 
    369, 
    370, 
    371, 
    372, 
    375, 
    376, 
    377, 
    378, 
    379, 
    380, 
    381, 
    382, 
    383, 
    384, 
    385, 
    386, 
    387, 
    390, 
    391, 
    392, 
    393, 
    394, 
    395, 
    396, 
    397, 
    398, 
    399, 
    400, 
    403, 
    404, 
    405, 
    406, 
    407, 
    408, 
    409, 
    410, 
    411, 
    414, 
    415, 
    416, 
    417, 
    418, 
    419, 
    420, 
    421, 
    422, 
    423, 
    424, 
    425, 
    426, 
    429, 
    430, 
    431, 
    432, 
    433, 
    434, 
    435, 
    436, 
    437, 
    440, 
    441, 
    442, 
    443, 
    444, 
    445, 
    446, 
    447, 
    448, 
    449, 
    452, 
    453, 
    454, 
    455, 
    456, 
    457, 
    458, 
    459, 
    460, 
    463, 
    464, 
    465, 
    466, 
    467, 
    468, 
    469, 
    470, 
    471, 
    472, 
    473, 
    474, 
    475, 
    478, 
    479, 
    480, 
    481, 
    482, 
    483, 
    484, 
    485, 
    486, 
    487, 
    488, 
    489
  ], 
  "heads": [[410, 0, 0]], 
  "attrs": {"mxnet_version": ["int", 10500]}
}